…
[36m(RayWorker pid=3871725)[0m [W Utils.hpp:133] Warning: Environment variable NCCL_ASYNC_ERROR_HANDLING is deprecated; use TORCH_NCCL_ASYNC_ERROR_HANDLING instead (function getCvarInt)
[36m(RayWorker pid=3871728)[0m Loading pipeline components...:   0%|          | 0/7 [00:00<?, ?it/s]You have passed a non-standard module StableDiffusionSafetyChecker(
[36m(RayWorker pid=3871728)[0m   (vision_model): CLIPVisionModel(
[36m(RayWorker pid=3871728)[0m     (vision_model): CLIPVisionTransformer(
[36m(RayWorker pid=3871728)[0m       (embeddings): CLIPVisionEmbeddings(
[36m(RayWorker pid=3871728)[0m         (patch_embedding): Conv2d(3, 1024, kernel_size=(14, 14), stride=(14, 14), bias=False)
[36m(RayWorker pid=3871728)[0m         (position_embedding): Embedding(257, 1024)
[36m(RayWorker pid=3871728)[0m       )
[36m(RayWorker pid=3871728)[0m       (pre_layrnorm): LayerNorm((1024,), eps=1e-05, elementwise_affine=True)
[36m(RayWorker pid=3871728)[0m       (encoder): CLIPEncoder(
[36m(RayWorker pid=3871728)[0m         (layers): ModuleList(
[36m(RayWorker pid=3871728)[0m           (0-23): 24 x CLIPEncoderLayer(
[36m(RayWorker pid=3871728)[0m             (self_attn): CLIPAttention(
[36m(RayWorker pid=3871728)[0m               (k_proj): Linear(in_features=1024, out_features=1024, bias=True)
[36m(RayWorker pid=3871728)[0m               (v_proj): Linear(in_features=1024, out_features=1024, bias=True)
[36m(RayWorker pid=3871728)[0m               (q_proj): Linear(in_features=1024, out_features=1024, bias=True)
[36m(RayWorker pid=3871728)[0m               (out_proj): Linear(in_features=1024, out_features=1024, bias=True)
[36m(RayWorker pid=3871728)[0m             )
[36m(RayWorker pid=3871728)[0m             (layer_norm1): LayerNorm((1024,), eps=1e-05, elementwise_affine=True)
[36m(RayWorker pid=3871728)[0m             (mlp): CLIPMLP(
[36m(RayWorker pid=3871728)[0m               (activation_fn): QuickGELUActivation()
[36m(RayWorker pid=3871728)[0m               (fc1): Linear(in_features=1024, out_features=4096, bias=True)
[36m(RayWorker pid=3871728)[0m               (fc2): Linear(in_features=4096, out_features=1024, bias=True)
[36m(RayWorker pid=3871728)[0m             )
[36m(RayWorker pid=3871728)[0m             (layer_norm2): LayerNorm((1024,), eps=1e-05, elementwise_affine=True)
[36m(RayWorker pid=3871728)[0m           )
[36m(RayWorker pid=3871728)[0m         )
[36m(RayWorker pid=3871728)[0m       )
[36m(RayWorker pid=3871728)[0m       (post_layernorm): LayerNorm((1024,), eps=1e-05, elementwise_affine=True)
[36m(RayWorker pid=3871728)[0m     )
[36m(RayWorker pid=3871728)[0m   )
[36m(RayWorker pid=3871728)[0m   (visual_projection): Linear(in_features=1024, out_features=768, bias=False)
[36m(RayWorker pid=3871728)[0m ). We cannot verify whether it has the correct type
[36m(RayWorker pid=3871728)[0m Loading pipeline components...: 100%|██████████| 7/7 [00:00<00:00, 540.94it/s]
[36m(RayWorker pid=3871725)[0m Using /data/home/zzp/.cache/torch_extensions/py39_cu121 as PyTorch extensions root...
[36m(RayWorker pid=3871725)[0m Detected CUDA files, patching ldflags
…
